…
lizing_ratio=8, lambda_pos=4, eval=False, dist_eval=False, eval_reverse=False, test=False, finetune='', resume='', start_epoch=0, save_pred_dict=False, eval_period=5, save_period=1000, disable_wandb=False, model_checkpoint_path=None, device='cpu', world_size=1, name_to_x='../out_data/colabfold_name_to_x.pt', local_rank=-1, dist_on_itp=False, dist_url='env://', contrastive_output=True, output_dir=PosixPath('../model_results/esm2_with_receptor_05_datasets'), distributed=False)
[09:24:56.787929] ESMWithReceptorModel(
  (esm_model): EsmModel(
    (embeddings): EsmEmbeddings(
      (word_embeddings): Embedding(33, 640, padding_idx=1)
      (dropout): Dropout(p=0.0, inplace=False)
      (position_embeddings): Embedding(1026, 640, padding_idx=1)
    )
    (encoder): EsmEncoder(
      (layer): ModuleList(
        (0-29): 30 x EsmLayer(
          (attention): EsmAttention(
            (self): EsmSelfAttention(
              (query): Linear(in_features=640, out_features=640, bias=True)
              (key): Linear(in_features=640, out_features=640, bias=True)
              (value): Linear(in_features=640, out_features=640, bias=True)
              (dropout): Dropout(p=0.0, inplace=False)
              (rotary_embeddings): RotaryEmbedding()
            )
            (output): EsmSelfOutput(
              (dense): Linear(in_features=640, out_features=640, bias=True)
              (dropout): Dropout(p=0.0, inplace=False)
            )
            (LayerNorm): LayerNorm((640,), eps=1e-05, elementwise_affine=True)
          )
          (intermediate): EsmIntermediate(
            (dense): Linear(in_features=640, out_features=2560, bias=True)
          )
          (output): EsmOutput(
            (dense): Linear(in_features=2560, out_features=640, bias=True)
            (dropout): Dropout(p=0.0, inplace=False)
          )
          (LayerNorm): LayerNorm((640,), eps=1e-05, elementwise_affine=True)
        )
      )
      (emb_layer_norm_after): LayerNorm((640,), eps=1e-05, elementwise_affine=True)
    )
    (pooler): EsmPooler(
      (dense): Linear(in_features=640, out_features=640, bias=True)
      (activation): Tanh()
    )
    (contact_head): EsmContactPredictionHead(
      (regression): Linear(in_features=600, out_features=1, bias=True)
      (activation): Sigmoid()
    )
  )
  (net): Sequential(
    (0): Linear(in_features=640, out_features=640, bias=True)
    (1): ReLU()
    (2): Linear(in_features=640, out_features=320, bias=True)
    (3): ReLU()
    (4): Linear(in_features=320, out_features=3, bias=True)
  )
  (film): FiLM(
    (fc): Linear(in_features=640, out_features=1280, bias=True)
  )
)
[09:24:56.789076] Training 1,436,803 of 150,232,284 parameters
[09:24:56.812994] len(ds_test)=268
[09:24:56.861556] len(ds_train)=1071
[09:24:56.861626] Start training for 20 epochs, saving to ../model_results/esm2_with_receptor_05_datasets
Some weights of EsmModel were not initialized from the model checkpoint at facebook/esm2_t30_150M_UR50D and are newly initialized: ['esm.pooler.dense.bias', 'esm.pooler.dense.weight']
…
