…
to_x='../out_data/colabfold_name_to_x.pt', local_rank=-1, dist_on_itp=False, dist_url='env://', contrastive_output=True, output_dir=PosixPath('../model_results/esm2_bfactor_weighted_05_datasets'), distributed=False)
[18:55:02.828141] DEBUG Tokenizer Info:
[18:55:02.828183]   - eos_token: <eos>, eos_token_id: 2
[18:55:02.828199]   - cls_token: <cls>, cls_token_id: 0
[18:55:02.828211]   - pad_token: <pad>, pad_token_id: 1
[18:55:02.828222]   - unk_token: <unk>, unk_token_id: 3
[18:55:02.944578] ESMBfactorWeightedFeatures(
  (esm): EsmModel(
    (embeddings): EsmEmbeddings(
      (word_embeddings): Embedding(33, 320, padding_idx=1)
      (dropout): Dropout(p=0.0, inplace=False)
      (position_embeddings): Embedding(1026, 320, padding_idx=1)
    )
    (encoder): EsmEncoder(
      (layer): ModuleList(
        (0-5): 6 x EsmLayer(
          (attention): EsmAttention(
            (self): EsmSelfAttention(
              (query): Linear(in_features=320, out_features=320, bias=True)
              (key): Linear(in_features=320, out_features=320, bias=True)
              (value): Linear(in_features=320, out_features=320, bias=True)
              (dropout): Dropout(p=0.0, inplace=False)
              (rotary_embeddings): RotaryEmbedding()
            )
            (output): EsmSelfOutput(
              (dense): Linear(in_features=320, out_features=320, bias=True)
              (dropout): Dropout(p=0.0, inplace=False)
            )
            (LayerNorm): LayerNorm((320,), eps=1e-05, elementwise_affine=True)
          )
          (intermediate): EsmIntermediate(
            (dense): Linear(in_features=320, out_features=1280, bias=True)
          )
          (output): EsmOutput(
            (dense): Linear(in_features=1280, out_features=320, bias=True)
            (dropout): Dropout(p=0.0, inplace=False)
          )
          (LayerNorm): LayerNorm((320,), eps=1e-05, elementwise_affine=True)
        )
      )
      (emb_layer_norm_after): LayerNorm((320,), eps=1e-05, elementwise_affine=True)
    )
    (pooler): EsmPooler(
      (dense): Linear(in_features=320, out_features=320, bias=True)
      (activation): Tanh()
    )
    (contact_head): EsmContactPredictionHead(
      (regression): Linear(in_features=120, out_features=1, bias=True)
      (activation): Sigmoid()
    )
  )
  (film): FiLMWithConcatenation(
    (chemical_proj): Sequential(
      (0): Linear(in_features=3, out_features=64, bias=True)
      (1): ReLU()
      (2): Linear(in_features=64, out_features=320, bias=True)
      (3): LayerNorm((320,), eps=1e-05, elementwise_affine=True)
    )
    (film_layer): Linear(in_features=640, out_features=640, bias=True)
    (layer_norm): LayerNorm((320,), eps=1e-05, elementwise_affine=True)
    (dropout): Dropout(p=0.1, inplace=False)
  )
  (classifier): Sequential(
    (0): Linear(in_features=320, out_features=160, bias=True)
    (1): LayerNorm((160,), eps=1e-05, elementwise_affine=True)
    (2): ReLU()
    (3): Dropout(p=0.2, inplace=False)
    (4): Linear(in_features=160, out_features=3, bias=True)
  )
  (criterion): CrossEntropyLoss()
)
[18:55:02.945085] Training 4,287,100 of 8,324,860 parameters
[18:55:02.962288] len(ds_test)=268
[18:55:03.011106] len(ds_train)=1071
[18:55:03.011178] Start training for 20 epochs, saving to ../model_results/esm2_bfactor_weighted_05_datasets
Some weights of EsmModel were not initialized from the model checkpoint at facebook/esm2_t6_8M_UR50D and are newly initialized: ['esm.pooler.dense.bias', 'esm.pooler.dense.weight']
…
