…
vocab.txt: 100%|███████████████████████████████████████████████████████████████████████████████████████████████████████████████████████████████████████████████████████████| 93.0/93.0 [00:00<00:00, 151kB/s]
special_tokens_map.json: 100%|███████████████████████████████████████████████████████████████████████████████████████████████████████████████████████████████████████████████| 125/125 [00:00<00:00, 456kB/s]
[00:29:57.045698] DEBUG Tokenizer Info:
[00:29:57.045734]   - eos_token: <eos>, eos_token_id: 2
[00:29:57.045789]   - cls_token: <cls>, cls_token_id: 0
[00:29:57.045802]   - pad_token: <pad>, pad_token_id: 1
[00:29:57.045813]   - unk_token: <unk>, unk_token_id: 3
[00:29:57.162947] ESMBfactorWeightedFeatures(
  (esm): EsmModel(
    (embeddings): EsmEmbeddings(
      (word_embeddings): Embedding(33, 480, padding_idx=1)
      (dropout): Dropout(p=0.0, inplace=False)
      (position_embeddings): Embedding(1026, 480, padding_idx=1)
    )
    (encoder): EsmEncoder(
      (layer): ModuleList(
        (0-11): 12 x EsmLayer(
          (attention): EsmAttention(
            (self): EsmSelfAttention(
              (query): Linear(in_features=480, out_features=480, bias=True)
              (key): Linear(in_features=480, out_features=480, bias=True)
              (value): Linear(in_features=480, out_features=480, bias=True)
              (dropout): Dropout(p=0.0, inplace=False)
              (rotary_embeddings): RotaryEmbedding()
            )
            (output): EsmSelfOutput(
              (dense): Linear(in_features=480, out_features=480, bias=True)
              (dropout): Dropout(p=0.0, inplace=False)
            )
            (LayerNorm): LayerNorm((480,), eps=1e-05, elementwise_affine=True)
          )
          (intermediate): EsmIntermediate(
            (dense): Linear(in_features=480, out_features=1920, bias=True)
          )
          (output): EsmOutput(
            (dense): Linear(in_features=1920, out_features=480, bias=True)
            (dropout): Dropout(p=0.0, inplace=False)
          )
          (LayerNorm): LayerNorm((480,), eps=1e-05, elementwise_affine=True)
        )
      )
      (emb_layer_norm_after): LayerNorm((480,), eps=1e-05, elementwise_affine=True)
    )
    (pooler): EsmPooler(
      (dense): Linear(in_features=480, out_features=480, bias=True)
      (activation): Tanh()
    )
    (contact_head): EsmContactPredictionHead(
      (regression): Linear(in_features=240, out_features=1, bias=True)
      (activation): Sigmoid()
    )
  )
  (film): FiLMWithConcatenation(
    (chemical_proj): Sequential(
      (0): Linear(in_features=3, out_features=64, bias=True)
      (1): ReLU()
      (2): Linear(in_features=64, out_features=480, bias=True)
      (3): LayerNorm((480,), eps=1e-05, elementwise_affine=True)
    )
    (film_layer): Linear(in_features=960, out_features=960, bias=True)
    (layer_norm): LayerNorm((480,), eps=1e-05, elementwise_affine=True)
    (dropout): Dropout(p=0.1, inplace=False)
  )
  (classifier): Sequential(
    (0): Linear(in_features=480, out_features=240, bias=True)
    (1): LayerNorm((240,), eps=1e-05, elementwise_affine=True)
    (2): ReLU()
    (3): Dropout(p=0.2, inplace=False)
    (4): Linear(in_features=240, out_features=3, bias=True)
  )
  (criterion): CrossEntropyLoss()
)
[00:29:57.163637] Training 4,075,700 of 35,065,460 parameters
[00:29:57.178360] len(ds_test)=268
[00:29:57.226448] len(ds_train)=1071
[00:29:57.226512] Start training for 20 epochs, saving to ../model_results/esm2_bfactor_weighted_05_datasets
[00:29:59.255018] Test:  [ 0/34]  eta: 0:01:08    time: 2.0278  data: 0.0125
…
