…
tokenizer_config.json: 100%|███████████████████████████████████████████████████████████████████████████████████████████████████████████████████████████████████████████████| 95.0/95.0 [00:00<00:00, 212kB/s]
vocab.txt: 100%|███████████████████████████████████████████████████████████████████████████████████████████████████████████████████████████████████████████████████████████| 93.0/93.0 [00:00<00:00, 217kB/s]
special_tokens_map.json: 100%|███████████████████████████████████████████████████████████████████████████████████████████████████████████████████████████████████████████████| 125/125 [00:00<00:00, 330kB/s]
[23:01:12.563043] ESMBfactorWeightedFeatures(
  (esm): EsmModel(
    (embeddings): EsmEmbeddings(
      (word_embeddings): Embedding(33, 320, padding_idx=1)
      (dropout): Dropout(p=0.0, inplace=False)
      (position_embeddings): Embedding(1026, 320, padding_idx=1)
    )
    (encoder): EsmEncoder(
      (layer): ModuleList(
        (0-5): 6 x EsmLayer(
          (attention): EsmAttention(
            (self): EsmSelfAttention(
              (query): Linear(in_features=320, out_features=320, bias=True)
              (key): Linear(in_features=320, out_features=320, bias=True)
              (value): Linear(in_features=320, out_features=320, bias=True)
              (dropout): Dropout(p=0.0, inplace=False)
              (rotary_embeddings): RotaryEmbedding()
            )
            (output): EsmSelfOutput(
              (dense): Linear(in_features=320, out_features=320, bias=True)
              (dropout): Dropout(p=0.0, inplace=False)
            )
            (LayerNorm): LayerNorm((320,), eps=1e-05, elementwise_affine=True)
          )
          (intermediate): EsmIntermediate(
            (dense): Linear(in_features=320, out_features=1280, bias=True)
          )
          (output): EsmOutput(
            (dense): Linear(in_features=1280, out_features=320, bias=True)
            (dropout): Dropout(p=0.0, inplace=False)
          )
          (LayerNorm): LayerNorm((320,), eps=1e-05, elementwise_affine=True)
        )
      )
      (emb_layer_norm_after): LayerNorm((320,), eps=1e-05, elementwise_affine=True)
    )
    (pooler): EsmPooler(
      (dense): Linear(in_features=320, out_features=320, bias=True)
      (activation): Tanh()
    )
    (contact_head): EsmContactPredictionHead(
      (regression): Linear(in_features=120, out_features=1, bias=True)
      (activation): Sigmoid()
    )
  )
  (film): FiLMWithConcatenation(
    (chemical_proj): Sequential(
      (0): Linear(in_features=3, out_features=64, bias=True)
      (1): ReLU()
      (2): Linear(in_features=64, out_features=320, bias=True)
      (3): LayerNorm((320,), eps=1e-05, elementwise_affine=True)
    )
    (film_layer): Linear(in_features=640, out_features=640, bias=True)
    (layer_norm): LayerNorm((320,), eps=1e-05, elementwise_affine=True)
    (dropout): Dropout(p=0.1, inplace=False)
  )
  (classifier): Sequential(
    (0): Linear(in_features=320, out_features=160, bias=True)
    (1): LayerNorm((160,), eps=1e-05, elementwise_affine=True)
    (2): ReLU()
    (3): Dropout(p=0.2, inplace=False)
    (4): Linear(in_features=160, out_features=3, bias=True)
  )
  (criterion): CrossEntropyLoss()
)
[23:01:12.563508] Training 1,821,180 of 8,324,860 parameters
[23:01:12.587563] len(ds_test)=268
[23:01:12.647481] len(ds_train)=1071
[23:01:12.647546] Start training for 20 epochs, saving to ../model_results/esm2_bfactor_weighted_05_datasets
[23:01:14.371819] Test:  [ 0/34]  eta: 0:00:58    time: 1.7221  data: 0.0179
…
