…
zing_ratio=8, lambda_pos=4, eval=False, dist_eval=False, eval_reverse=False, test=False, finetune='', resume='', start_epoch=0, save_pred_dict=False, eval_period=5, save_period=10, disable_wandb=False, model_checkpoint_path=None, device='cpu', world_size=1, name_to_x='../out_data/colabfold_name_to_x.pt', local_rank=-1, dist_on_itp=False, dist_url='env://', contrastive_output=True, output_dir=PosixPath('../model_results/esm2_all_chemical_features_05_datasets'), distributed=False)
[11:55:26.563593] ESMallChemicalFeatures(
  (esm): EsmModel(
    (embeddings): EsmEmbeddings(
      (word_embeddings): Embedding(33, 640, padding_idx=1)
      (dropout): Dropout(p=0.0, inplace=False)
      (position_embeddings): Embedding(1026, 640, padding_idx=1)
    )
    (encoder): EsmEncoder(
      (layer): ModuleList(
        (0-29): 30 x EsmLayer(
          (attention): EsmAttention(
            (self): EsmSelfAttention(
              (query): Linear(in_features=640, out_features=640, bias=True)
              (key): Linear(in_features=640, out_features=640, bias=True)
              (value): Linear(in_features=640, out_features=640, bias=True)
              (dropout): Dropout(p=0.0, inplace=False)
              (rotary_embeddings): RotaryEmbedding()
            )
            (output): EsmSelfOutput(
              (dense): Linear(in_features=640, out_features=640, bias=True)
              (dropout): Dropout(p=0.0, inplace=False)
            )
            (LayerNorm): LayerNorm((640,), eps=1e-05, elementwise_affine=True)
          )
          (intermediate): EsmIntermediate(
            (dense): Linear(in_features=640, out_features=2560, bias=True)
          )
          (output): EsmOutput(
            (dense): Linear(in_features=2560, out_features=640, bias=True)
            (dropout): Dropout(p=0.0, inplace=False)
          )
          (LayerNorm): LayerNorm((640,), eps=1e-05, elementwise_affine=True)
        )
      )
      (emb_layer_norm_after): LayerNorm((640,), eps=1e-05, elementwise_affine=True)
    )
    (pooler): EsmPooler(
      (dense): Linear(in_features=640, out_features=640, bias=True)
      (activation): Tanh()
    )
    (contact_head): EsmContactPredictionHead(
      (regression): Linear(in_features=600, out_features=1, bias=True)
      (activation): Sigmoid()
    )
  )
  (film): FiLMWithConcatenation(
    (chemical_proj): Sequential(
      (0): Linear(in_features=3, out_features=64, bias=True)
      (1): ReLU()
      (2): Linear(in_features=64, out_features=640, bias=True)
      (3): LayerNorm((640,), eps=1e-05, elementwise_affine=True)
    )
    (film_layer): Linear(in_features=1280, out_features=1280, bias=True)
    (layer_norm): LayerNorm((640,), eps=1e-05, elementwise_affine=True)
    (dropout): Dropout(p=0.1, inplace=False)
  )
  (classifier): Sequential(
    (0): Linear(in_features=640, out_features=320, bias=True)
    (1): LayerNorm((320,), eps=1e-05, elementwise_affine=True)
    (2): ReLU()
    (3): Dropout(p=0.2, inplace=False)
    (4): Linear(in_features=320, out_features=3, bias=True)
  )
  (criterion): CrossEntropyLoss()
)
[11:55:26.564781] Training 7,226,460 of 150,686,300 parameters
[11:55:26.581859] len(ds_test)=268
[11:55:26.627070] len(ds_train)=1071
[11:55:26.627134] Start training for 20 epochs, saving to ../model_results/esm2_all_chemical_features_05_datasets
Some weights of EsmModel were not initialized from the model checkpoint at facebook/esm2_t30_150M_UR50D and are newly initialized: ['esm.pooler.dense.bias', 'esm.pooler.dense.weight']
…
